…
   "id": "40a9f216",
   "metadata": {},
   "outputs": [],
   "source": [
    "# Save VAE model\n",
    "torch.save(vae.state_dict(), 'vae_model_dis-Stackedcoupling-Permt-learnable-10-IIoT.pth')\n",
    "\n",
    "# Save NF model\n",
    "torch.save(nf.state_dict(), 'nf_model_dis-Stackedcoupling-Permt-Lernable-10-IIoT.pth')\n"
   ]
  },
  {
   "cell_type": "code",
   "execution_count": 17,
   "id": "517d5e12",
   "metadata": {},
   "outputs": [
    {
     "data": {
      "text/plain": [
       "StackedCouplingFlows(\n",
       "  (flows): ModuleList(\n",
       "    (0): CouplingFlow(\n",
       "      (fc1): Linear(in_features=2, out_features=256, bias=True)\n",
       "      (fc2): Linear(in_features=256, out_features=256, bias=True)\n",
       "      (scale_transform): Linear(in_features=256, out_features=2, bias=True)\n",
       "      (translate): Linear(in_features=256, out_features=2, bias=True)\n",
       "      (scale_clamp): LearnableClamp()\n",
       "    )\n",
       "    (1): CouplingFlow(\n",
       "      (fc1): Linear(in_features=2, out_features=256, bias=True)\n",
       "      (fc2): Linear(in_features=256, out_features=256, bias=True)\n",
       "      (scale_transform): Linear(in_features=256, out_features=2, bias=True)\n",
       "      (translate): Linear(in_features=256, out_features=2, bias=True)\n",
       "      (scale_clamp): LearnableClamp()\n",
       "    )\n",
       "    (2): CouplingFlow(\n",
       "      (fc1): Linear(in_features=2, out_features=256, bias=True)\n",
       "      (fc2): Linear(in_features=256, out_features=256, bias=True)\n",
       "      (scale_transform): Linear(in_features=256, out_features=2, bias=True)\n",
       "      (translate): Linear(in_features=256, out_features=2, bias=True)\n",
       "      (scale_clamp): LearnableClamp()\n",
       "    )\n",
       "  )\n",
       ")"
      ]
     },
     "execution_count": 17,
     "metadata": {},
     "output_type": "execute_result"
    }
   ],
   "source": [
    "# Load the trained state_dicts\n",
    "vae.load_state_dict(torch.load('vae_model_dis-Stackedcoupling-Permt-learnable-10-IIoT.pth'))\n",
…
